CW2_Task1/model_checkpoint.pth (torch, 246338 bytes, 12 tensors)

lstm1.weight_ih_l0 f4 [256, 22]
0	0x3d2ab499	0.041676138
1	0xbde1e781	-0.11030484
2	0x3dc809fd	0.0976753
3	0x3d1e9d12	0.038724013
4	0xbc3c8ce9	-0.011508205
5	0x3d4ef896	0.05053004
6	0x3d8b2d3c	0.06795737
7	0xbd024175	-0.031800706
8	0x3bb4b864	0.005515145
9	0xbda5490f	-0.080705754
10	0xbb5ed977	-0.003400413
11	0xbba28bff	-0.0049605365
12	0xbd532a94	-0.051554278
13	0x3d915c29	0.07097656
14	0x3ce5ad09	0.028036611
15	0x3db13b1d	0.08653853
16	0x3d511f2e	0.051055126
17	0x3d854b4f	0.065085046
18	0x3c3ea4ff	0.011636018
19	0xbd814efc	-0.06313893
20	0x3d5ec62d	0.054388214
21	0x3e015354	0.12629443
22	0x3d3ee236	0.04660245
23	0xbdb691c8	-0.08914524
24	0x3d919256	0.071079895
25	0x3d4d9b3b	0.050196867
26	0xbd7c35e8	-0.061574847
27	0xbd277e28	-0.040891796
28	0xbd2809dc	-0.041025028
29	0xbd6e9ae5	-0.058253188
30	0x3d92ca81	0.07167531
31	0xbda66060	-0.08123851
32	0x3e068793	0.13137655
33	0xbd0d6154	-0.034516647
34	0xbd28f93d	-0.041253317
35	0xbe27b143	-0.16376214
36	0x3ca9f8ec	0.020748578
37	0x3cbf28ef	0.023334948
38	0xbdac96de	-0.08427213
39	0x3d82f31b	0.06394025
40	0xbc839822	-0.016063754
41	0xbcbd672c	-0.023120485
42	0x3d9f9732	0.0779251
43	0xbc16e2fa	-0.009209389
44	0x3d135ef7	0.035979237
45	0xbd1bf527	-0.038075592
46	0x3dbaf275	0.09128276
47	0xbd4672d4	-0.048449352
48	0xbde21006	-0.110382125
49	0xbd481b08	-0.048853904
50	0x3d9215fb	0.07133099
51	0x3de080b7	0.109620504
52	0xbd37b221	-0.04484761
53	0xbdd607ce	-0.104507074
54	0x3d41a61e	0.047277562
55	0x3dfabb60	0.1224277
56	0xbd99de42	-0.075130954
57	0x3d1a4aa1	0.037668828
58	0x3de8a2fd	0.113592125
59	0x3d6a37bc	0.05718206
60	0xbc38d800	-0.011281967
61	0x3d0d88b3	0.034554195
62	0x3d51b3c8	0.051196843
63	0xbc3183c4	-0.010834638
64	0xbdd7a435	-0.10529367
65	0x3db39ca4	0.08770111
66	0xbe0fb216	-0.14032778
67	0x3d464d2c	0.04841344
68	0x3db48352	0.0881411
69	0xbe2fb47f	-0.17158698
70	0xbdba3ad8	-0.09093255
71	0x3de97745	0.11399702
72	0x3cf9ca29	0.030491905
73	0x3d69d518	0.057087988
74	0x3d4289be	0.047494642
75	0xbca27ae1	-0.019833984
76	0x3d0a8cbc	0.03382562
77	0xbcfcf3e4	-0.030878015
78	0xbd884b21	-0.06654955
79	0x3db9ded8	0.09075707
80	0xbd36122f	-0.044450935
81	0x3c22a266	0.009926414
82	0x3d174844	0.036934152
83	0x3d637e1f	0.0555402
84	0xbd552ce3	-0.05204476
85	0x3d58115f	0.05275094
86	0xbdca9063	-0.09890821
87	0x3e2d63f5	0.16932662
88	0xbd700f36	-0.058608256
89	0xbd6dd216	-0.05806168
90	0x3dd81f5a	0.10552855
91	0xbdde3841	-0.10850573
92	0xbdc9d74c	-0.09855518
93	0xbd8988dd	-0.06715558
94	0x3d146d91	0.036237303
95	0x3d5defb0	0.054183662
96	0xbdac6398	-0.084174335
97	0xbdea6fac	-0.11447081
98	0x3e168d10	0.14702249
99	0x3c9e922a	0.019356806
100	0xbcf047ca	-0.029331107
101	0xbd99e199	-0.075137325
102	0x3cbbc728	0.022922114
103	0x3dd01c7b	0.10161682
104	0xbda22399	-0.07916946
105	0xbe07ff1d	-0.13280912
106	0xbc94ebe3	-0.018178886
107	0x3c902cd3	0.017599499
108	0xbba3449c	-0.004982544
109	0xbc54596b	-0.012960772
110	0x3cb242c1	0.021760346
111	0x3d62723c	0.055284724
112	0xbda982c6	-0.08276896
113	0x3cee697e	0.029103037
114	0xbd1dfbec	-0.03857033
115	0x3e0755fb	0.13216393
116	0x3de5b145	0.11215452
117	0xbd43fca1	-0.047848348
118	0xbda61c0b	-0.081108175
119	0xbddd9d0e	-0.108209714
120	0x3e2cfada	0.16892567
121	0xbc8b5118	-0.017006442
122	0x3ce4aaf9	0.027913557
123	0xbd75b86a	-0.059990324
124	0x3d1f221a	0.03885088
125	0x3d02db74	0.031947568
126	0xbd8bf2b4	-0.06833401
127	0xbd38900b	-0.045059245
128	0x3dfe9d32	0.124323264
129	0xbdce8ab6	-0.10085051
130	0xbdcd3551	-0.10019935
131	0xbcb567b7	-0.022144182
132	0x3dd7c881	0.1053629
133	0x3ba77c5b	0.00511126
134	0x3d127608	0.035757095
135	0xbd9b1c9a	-0.07573815
136	0xbdfd9c22	-0.123832956
137	0x3d3adc23	0.045620095
138	0x3df791f6	0.12088387
139	0x3e22ace2	0.15886262
140	0xbd17bbe8	-0.037044436
141	0xbd9de970	-0.0771054
142	0x3d945a8d	0.07243834
143	0x3deb2949	0.11482484
144	0x3d62a255	0.055330593
145	0x3d8a199d	0.067431666
146	0xbdac15ae	-0.084025726
147	0xbd18f04d	-0.037338544
148	0x3bc5a558	0.0060316734
149	0xbd535ec5	-0.05160405
150	0xbe2c2235	-0.16809924
151	0xbd0e6662	-0.03476561
152	0xbd89e552	-0.067331925
153	0xbc03226a	-0.00800381
154	0xbdc44467	-0.09583359
155	0x3dcc7bf2	0.09984578
156	0xbd8d2b5d	-0.068930365
157	0xbdeea12e	-0.11651836
158	0x3d4b2ba3	0.049602162
159	0xbcc1043e	-0.023561593
160	0x3d545efd	0.0518484
161	0xbd94fb8f	-0.072745435
162	0xbd538a40	-0.051645517
163	0x3cbe89d0	0.023259073
164	0x3e2108eb	0.15726058
165	0x3d56e778	0.05246684
166	0x3df48367	0.119391255
167	0x3cc2174c	0.02369275
168	0x3e295c4b	0.16539113
169	0x3da6c283	0.08142569
170	0xbdd218ed	-0.102586605
171	0x3cb0ed8f	0.021597652
172	0x3ab89509	0.0014082502
173	0x3d8af6ae	0.06785332
174	0xbdd49a28	-0.103809655
175	0x3b3ea56b	0.0029090296
176	0xbd8fa21e	-0.07013343
177	0x3bce10b7	0.0062886137
178	0x3df2dbac	0.11858305
179	0xbc176f5c	-0.009242859
180	0xbd4f9203	-0.050676357
181	0x3da9d719	0.0829298
182	0x3da40dc7	0.0801044
183	0xbccab999	-0.024746703
184	0xbdcf3b32	-0.101187125
185	0xbd528efc	-0.05140589
186	0x3dc23e58	0.094845474
187	0x3d795f44	0.060881868
188	0xbd9947ab	-0.07484373
189	0xbe30a309	-0.17249693
190	0x3d8c7725	0.068586625
191	0x3b343875	0.0027499471
192	0xbaa5f82d	-0.0012662463
193	0x3d30bac6	0.04314687
194	0xbb159888	-0.0022826511
195	0x3d89c16c	0.067263454
196	0x3ce5f3a3	0.028070277
197	0xbb95a9c3	-0.0045673563
198	0xbda5a294	-0.0808765
199	0x3dd05624	0.1017268
200	0xbdaf1bab	-0.08550199
201	0x3d2d7f35	0.042357642
202	0xbe211e6c	-0.15734261
203	0xbda33f0e	-0.07971011
204	0x3cc63de2	0.02419943
205	0x3d0b6408	0.034030944
206	0x3db509f3	0.08839788
207	0x3da1df13	0.07903876
208	0x3dd6327a	0.104588464
209	0xbd03cdf0	-0.03217882
210	0x3ad2abad	0.0016072892
211	0x3d8f6790	0.07002175
212	0x3d6cef25	0.057845253
213	0x3db22c0d	0.08699808
214	0xbd32d440	-0.04365945
215	0x3e2a0cbb	0.16606419
216	0x3d4cede5	0.05003156
217	0x3dd38b33	0.103292845
218	0xbdff9978	-0.12480444
219	0xbc62d43e	-0.013844548
220	0x3cedc7c6	0.029025923
221	0xbd4358a0	-0.04769194
222	0xbd0a62e1	-0.033785705
223	0x3d55c055	0.052185375
224	0xbd8b380e	-0.06797801
225	0x3e01bb9e	0.12669227
226	0x3e0b1f0e	0.13586065
227	0x3c1853f5	0.009297361
228	0x3e3ebae5	0.18625982
229	0xbd1001aa	-0.035157837
230	0x3da93f09	0.08263976
231	0xbc67ed07	-0.014155633
232	0x3daae166	0.083437726
233	0x3de850a3	0.11343505
234	0xbc43f9e9	-0.011961439
235	0xbccaac10	-0.024740249
236	0x3e096c79	0.13420285
237	0xbbdb12a1	-0.0066855703
238	0x3dab18d8	0.08354348
239	0x3db25c7f	0.087090485
240	0x3db66eab	0.08907827
241	0xbcf3a877	-0.029743416
242	0xbcb4fabe	-0.02209222
243	0xbdb1390a	-0.086534575
244	0x3c926a8d	0.017873073
245	0xbb982195	-0.004642675
246	0x3d3eac84	0.046551242
247	0xbdd69318	-0.10477275
248	0x3da23877	0.07920926
249	0x3cd7469a	0.026278783
250	0xbde18e7f	-0.11013507
251	0xbdde616e	-0.10858427
252	0x3c715caa	0.0147315655
253	0x3b3013da	0.0026867301
254	0x3db204b0	0.086923
255	0x3d060ebd	0.0327289

lstm1.weight_hh_l0 f4 [256, 64]
0	0x3d8012a8	0.062535584
1	0xbd89c31b	-0.067266665
2	0xbdf8713c	-0.12130973
3	0xbdbe2c16	-0.092857525
4	0x3d497298	0.04918155
5	0xbde99af8	-0.11406511
6	0xbd824d1a	-0.06362362
7	0x3d3b6893	0.045754027
8	0xbd2435d4	-0.040090397
9	0xbe02b471	-0.12764145
10	0xbd2b2f52	-0.041793175
11	0x3d9c47fa	0.07630916
12	0xbdf8f126	-0.121553704
13	0xbe247bfe	-0.16062924
14	0x3d9f4bae	0.07778107
15	0xbdd87a9e	-0.10570262
16	0x3d87bc3a	0.06627698
17	0xbd88a7ae	-0.06672607
18	0xbe02245a	-0.1270918
19	0xbde93428	-0.11386901
20	0x3dd4b8e4	0.103868276
21	0x3d967b67	0.07347756
22	0x3e1357fe	0.14389035
23	0x3dcb1d13	0.09917655
24	0xbcfe6e13	-0.031058347
25	0xba800327	-0.0009766564
26	0xbdb91930	-0.09038007
27	0x3d6b0bec	0.057384416
28	0xbb67e0e3	-0.0035381846
29	0x3d10e74b	0.03537683
30	0xbd37b480	-0.044849873
31	0x3c112ca0	0.008860737
32	0x3d51f5ea	0.051259913
33	0x3c14442d	0.0090494575
34	0xbdaf5806	-0.08561711
35	0x3b2a1cde	0.0025957148
36	0xbcda2fe1	-0.026634159
37	0xbcf4f4d7	-0.029901905
38	0x3ca85ddf	0.020552574
39	0xbd641ec0	-0.055693388
40	0x3dee0894	0.1162273
41	0x3dce8052	0.10083069
42	0xbd32dca1	-0.04366744
43	0x3d5d44a7	0.05402055
44	0xbd7bbaca	-0.061457433
45	0xbcb3544b	-0.02189078
46	0xbd5b0475	-0.053471047
47	0x3da68542	0.08130886
48	0xbcd968da	-0.026539255
49	0x3e0037ad	0.12521239
50	0x3e0c8486	0.13722429
51	0x3b691ced	0.003557022
52	0xbbce78ab	-0.006301006
53	0xbdd98388	-0.10620791
54	0xbe13fc40	-0.14451694
55	0xbde69cc1	-0.11260367
56	0xbdc62430	-0.09674871
57	0xbd072d17	-0.033001985
58	0xbd0ede7d	-0.03488015
59	0x3d37b561	0.04485071
60	0x3dcae4f1	0.09906948
61	0x3df35ec9	0.11883313
62	0x3ce34909	0.027744787
63	0x3d8e881c	0.069595546
64	0x3db8ee1d	0.090297915
65	0x3d8503b6	0.064948484
66	0x3d0f8366	0.03503742
67	0xbd704043	-0.058655035
68	0x3da44641	0.08021212
69	0xbdf3d9ef	-0.11906802
70	0xbb55bd5c	-0.0032614088
71	0x3c19ad36	0.009379676
72	0xbaeac556	-0.0017911594
73	0x3dd22c32	0.10262336
74	0x3da2a5ce	0.07941781
75	0x3e3cfcfc	0.18455881
76	0xbd434c23	-0.04768003
77	0x3d2a0ad6	0.04151424
78	0x3b343daa	0.0027502575
79	0xbd084225	-0.033266205
80	0xbd00c8a1	-0.031441335
81	0xbd488900	-0.04895878
82	0xbb1ffa79	-0.0024410768
83	0x3d03a3d7	0.03213867
84	0xbdd58499	-0.104256816
85	0xbc29dcb7	-0.010367564
86	0xbc91047d	-0.017702335
87	0xbd91d75c	-0.07121155
88	0x3bab35e1	0.0052249287
89	0x3da243a8	0.07923061
90	0xbdb1c1a2	-0.08679511
91	0xbd461bd8	-0.048366398
92	0x3cb0e474	0.02159331
93	0xbd831f0c	-0.06402406
94	0x3d38cc9c	0.045117006
95	0x3d8b7696	0.06809728
96	0x3d912f0c	0.070890516
97	0x3da4aecd	0.08041153
98	0x3e2cfc89	0.1689321
99	0xbdd0f456	-0.102028534
100	0x3d8fbd18	0.07018489
101	0xbcf69843	-0.0301019
102	0xbd7d47af	-0.06183594
103	0x3da7bf99	0.08190841
104	0x3e3a8098	0.18213117
105	0xbe1edc0a	-0.15513626
106	0xbd82dafd	-0.06389425
107	0xbd6a19de	-0.057153575
108	0x3d64d7f5	0.055870015
109	0xbda3d673	-0.07999887
110	0xbd3a89af	-0.04554146
111	0xbcb4701c	-0.022026114
112	0x3af7ccda	0.0018905655
113	0x3dc4d347	0.096106105
114	0xbdc94078	-0.098267496
115	0x3de3c521	0.11121584
116	0xbdff5db8	-0.12469047
117	0xbdaa14bb	-0.08304735
118	0xbe3e9b49	-0.18613924
119	0x3ceca4db	0.028887203
120	0x3dc25831	0.094894774
121	0x3e22e751	0.15908553
122	0x3b1e4b36	0.0024153716
123	0xbd313f44	-0.043273225
124	0x3d7ce65c	0.061743125
125	0x3df73c99	0.12072105
126	0xbd346219	-0.044038866
127	0x3d822a16	0.063556835
128	0x3dae63f3	0.085151576
129	0x3b8fffd1	0.0043945094
130	0x3d94000d	0.07226572
131	0x3db3f6a1	0.08787275
132	0x3e046045	0.12927349
133	0x3d80dc42	0.06292011
134	0xbd3217da	-0.043479778
135	0x3d607a8d	0.054804374
136	0xbae5cf10	-0.0017533023
137	0x3d8b5f7c	0.068053216
138	0x3d861b86	0.065482184
139	0xbe05ade4	-0.13054615
140	0xbcbea0ec	-0.023270093
141	0xbd8a1b5b	-0.06743499
142	0x3cfa412f	0.03054866
143	0x3d90233b	0.0703797
144	0x3c4d7995	0.012541194
145	0xbd5ea9a6	-0.054361008
146	0xbd1f546d	-0.038898874
147	0xbdb90a89	-0.090352125
148	0xbdb525d1	-0.088451035
149	0x3ddb7701	0.107160576
150	0xbb812747	-0.00394145
151	0x3cb18d38	0.021673784
152	0x3db5bd30	0.08873975
153	0x3dde2699	0.10847206
154	0xbdf35638	-0.11881679
155	0xbced7f71	-0.028991433
156	0xbdc4abd7	-0.09603088
157	0xbe132353	-0.14368944
158	0xbdffac8d	-0.12484083
159	0x3deb73b6	0.114966795
160	0xbdc57557	-0.096415214
161	0x3ceb497e	0.028721567
162	0xbda66d88	-0.0812636
163	0xbe12cc3d	-0.14335723
164	0xbcc5a56e	-0.024126735
165	0xbdf5f545	-0.12009672
166	0xbcd3b3b4	-0.025842525
167	0x3ccfcb4f	0.0253655
168	0xbe176692	-0.14785221
169	0xbdf64871	-0.12025536
170	0x3d88b9c8	0.0667606
171	0x3dc6921e	0.096958384
172	0x3da561cc	0.08075294
173	0xbd7e592e	-0.062096767
174	0x3d4f4947	0.050606992
175	0x3d3b9e73	0.045805406
176	0xbe1adbda	-0.15122929
177	0x3d8798d3	0.06620946
178	0x3cb0476b	0.02151843
179	0xbdf72476	-0.12067501
180	0xbd021a2d	-0.031763244
181	0xbbdf79e6	-0.0068199513
182	0x3daffe62	0.085934415
183	0x3d2bc870	0.0419392
184	0xbdb61b9b	-0.08891984
185	0x3db94ccf	0.09047853
186	0x3ab13c8f	0.0013522076
187	0x3da92714	0.08259407
188	0xbd8a693d	-0.06758354
189	0x3e220b1b	0.15824549
190	0xbdb1d87c	-0.08683869
191	0x3dd36381	0.10321713
192	0xbd7bf794	-0.061515406
193	0xbac51222	-0.0015035311
194	0xbdb21ea5	-0.08697251
195	0xbbc62a05	-0.0060474896
196	0xbdb2873f	-0.087172024
197	0xbdf37334	-0.118872076
198	0xbca24652	-0.019808922
199	0xbd27964e	-0.040914826
200	0xbe3617bd	-0.17782493
201	0x3d449a97	0.04799899
202	0x3c3ff6e5	0.011716579
203	0xbc46fe87	-0.012145645
204	0xbe3fc954	-0.18729144
205	0x3dc774fc	0.0973911
206	0x3c072293	0.008247989
207	0xbd6876ba	-0.05675385
208	0xbcd65c04	-0.026166923
209	0x3d7687d7	0.06018814
210	0xbdd3ce31	-0.10342062
211	0xbcbe4275	-0.023225049
212	0xbd2e24f3	-0.042515706
213	0xbc4341c9	-0.01191754
214	0xbdcc0b0c	-0.099630445
215	0xbc06ec03	-0.0082349805
216	0x3c8756ca	0.016520876
217	0x3e08a374	0.13343602
218	0x3e0bbb7f	0.13645743
219	0xbd4b1135	-0.049576957
220	0x3c827b07	0.015927805
221	0xbc05dc12	-0.008170145
222	0x3cc7b8cc	0.02438011
223	0x3d0a2453	0.033726048
224	0xbd3384a9	-0.043827686
225	0xbc8dff4e	-0.017333653
226	0xbdae4684	-0.085095435
227	0xbc36f993	-0.011167902
228	0x3e273002	0.16326907
229	0x3cc6e079	0.024276959
230	0xbceb7234	-0.02874098
231	0xbd1cdf3f	-0.03829884
232	0xbe0ae48f	-0.1356375
233	0x3d3f4243	0.04669405
234	0xbdf10362	-0.11768223
235	0xbe135407	-0.14387523
236	0xbc39ddb3	-0.011344361
237	0xbd1e96d8	-0.038718075
238	0xbd869ef3	-0.06573286
239	0x3da95a42	0.082691684
240	0xbcf62c39	-0.030050384
241	0x3d1b72a7	0.037951138
242	0x3d80b248	0.062840044
243	0x3d9f8d43	0.077906154
244	0x3d5e60dd	0.054291595
245	0xbd59cfce	-0.053176694
246	0xbdc3f86c	-0.09568867
247	0xbe1780f0	-0.1479528
248	0x3d263c83	0.040585052
249	0xbde80427	-0.11328917
250	0x3d828b49	0.06374223
251	0x3e24fa9c	0.16111225
252	0xbdb59a8b	-0.08867367
253	0x3e3b9a0e	0.18320486
254	0x3e07b2af	0.13251756
255	0x3e42506a	0.18975988

lstm1.bias_ih_l0 f4 [256]
0	0x3d91ca34	0.07118645
1	0x3e1e008f	0.154299
2	0x3c01f7fd	0.00793266
3	0xbd6f3152	-0.058396645
4	0x3db2fff4	0.087402254
5	0xbba55d65	-0.005046534
6	0x3c814767	0.015781118
7	0x3e081e08	0.13292706
8	0x3d523c93	0.0513273
9	0xbcb4352f	-0.021998016
10	0xbd301c33	-0.042995643
11	0x3db8e9dc	0.0902898
12	0x3d36a661	0.044592265
13	0xbc33d12f	-0.010975166
14	0xbc11087a	-0.008852119
15	0x3d28d5fd	0.0412197
16	0x3bb45058	0.005502742
17	0x3d04e4f1	0.032444898
18	0x3d050f6b	0.032485407
19	0x3caf82b1	0.021424623
20	0xbd23a70f	-0.03995424
21	0xbd6378d1	-0.05553514
22	0x3de06e0c	0.1095849
23	0xbd900da2	-0.0703385
24	0x3d898659	0.06715078
25	0x3cbdf849	0.02318968
26	0x3cd36b1e	0.025807913
27	0xbd410eaa	-0.047133125
28	0x3bf885d1	0.0075843115
29	0x3ca8ab49	0.020589488
30	0x3d6f5e5f	0.05843961
31	0xbbc81796	-0.0061063273
32	0x3df032d6	0.11728446
33	0x3d8f438c	0.069953054
34	0xbd550f4f	-0.052016553
35	0xbce4dd33	-0.027937507
36	0x376a26b2	1.3956496e-05
37	0x3d2dcc1d	0.042430986
38	0xbc535f6d	-0.012901169
39	0x3d922665	0.071362294
40	0x3dbe65de	0.092967734
41	0xbde8c93f	-0.1136651
42	0x3d0dbcbf	0.03460383
43	0x3cb4e727	0.022082878
44	0x3de5fe90	0.112301946
45	0x3db93315	0.09042946
46	0x3e0d35d7	0.1379007
47	0xbd82b51a	-0.06382199
48	0x3bb2bb68	0.0054544695
49	0x3dbebdf7	0.09313577
50	0x3d6a8342	0.057254083
51	0xbd84a9f1	-0.06477726
52	0x3dc37a92	0.09544863
53	0xbda0e419	-0.07856006
54	0x3d812cb3	0.06307354
55	0xbd8b2c18	-0.067955196
56	0xbc2137f9	-0.009840005
57	0xbd854dbb	-0.065089665
58	0xbd998d10	-0.07497609
59	0xbca509d0	-0.02014628
60	0x3db8ba17	0.09019869
61	0xba043091	-0.00050426373
62	0x3db294d9	0.08719797
63	0xbd0b990b	-0.0340815
64	0xbd8e2274	-0.06940165
65	0x3dbbdda0	0.09173131
66	0xbc92d6ee	-0.017924752
67	0xbd5c956d	-0.05385344
68	0x3c260399	0.010132694
69	0x3cf6fc7c	0.03014969
70	0x3e088ded	0.1333539
71	0x3abefddf	0.0014571509
72	0x3c4bc263	0.012436482
73	0x3ddf1c5c	0.10894081
74	0x3d90249e	0.07038234
75	0xbda76f22	-0.08175494
76	0xbd97119f	-0.07376408
77	0x3e0346d3	0.12819986
78	0x3ddf6bbe	0.10909222
79	0xbc9b8ec9	-0.018988984
80	0xbc8af0aa	-0.01696046
81	0x3d5a1d8e	0.05325084
82	0xbd72afb9	-0.059249613
83	0x3cfef58a	0.031122942
84	0xbc9d3b5c	-0.019193344
85	0xbd14b423	-0.036304604
86	0xbd9f688f	-0.07783615
87	0x3e1febfa	0.15617362
88	0x3daaddd5	0.08343092
89	0xbd155e2a	-0.036466755
90	0x3dcfb644	0.10142186
91	0xbdd6692f	-0.10469281
92	0x3def5230	0.11685598
93	0x3bf5273b	0.0074814833
94	0xbd54812e	-0.051881008
95	0x3cbe32bc	0.023217551
96	0x3d2cd5a0	0.042195916
97	0x3d83c3f2	0.06433858
98	0xbd32da8a	-0.043665446
99	0x3c8c4884	0.017124422
100	0x3d535ed5	0.05160411
101	0x3dc7406b	0.097290836
102	0xbdeef135	-0.116671
103	0xbc49e4f4	-0.012322653
104	0x3c93b8b5	0.018032411
105	0x3d093d3a	0.033505656
106	0x3e30e9be	0.17276666
107	0xbcb0eb76	-0.021596652
108	0x3e0432db	0.12910025
109	0xbd1a2416	-0.03763207
110	0x3db04c16	0.08608262
111	0xbc27a307	-0.01023174
112	0xbdaa596b	-0.083178364
113	0xbcb03563	-0.021509832
114	0xbd0f1499	-0.034931753
115	0x3d82b3f3	0.06381979
116	0x3d1be856	0.03806337
117	0x3db71316	0.08939187
118	0x3da813a4	0.08206871
119	0x3de695d1	0.11259044
120	0x3e050e26	0.12993678
121	0x3db09a2e	0.086231574
122	0xbd162453	-0.036655735
123	0xbc14bf2c	-0.009078782
124	0xbe021be7	-0.12705956
125	0xbd826ea5	-0.0636876
126	0x3deffc23	0.11718013
127	0x3dd3a3cb	0.103339754
128	0x3dd774c0	0.10520315
129	0xbde6cff6	-0.11270134
130	0x3d7cc7ae	0.061713867
131	0x3da29e5e	0.079403624
132	0xbd3ac51e	-0.04559814
133	0x3d91bf0c	0.071165174
134	0xbd93fca8	-0.07225925
135	0x3c12d142	0.008961024
136	0x3cdd8bc0	0.027044177
137	0x3c2ec843	0.010667863
138	0x3d257bf5	0.040401418
139	0xbda228f0	-0.079179645
140	0xbdf76dcf	-0.12081491
141	0x3da56c94	0.0807735
142	0xbdd9c56e	-0.1063336
143	0x3dc852d9	0.09781427
144	0x3cad01c9	0.021119015
145	0x3d1dd930	0.038537204
146	0xbd319a5d	-0.043360103
147	0x3d07f819	0.03319559
148	0xbbc664b3	-0.0060544848
149	0xbcb7f965	-0.022457788
150	0xbde43da5	-0.1114457
151	0xbdbdcd16	-0.09267633
152	0xbcbfb0a2	-0.023399655
153	0xbc0832c9	-0.008312889
154	0xbdb62f0d	-0.08895693
155	0xbccec60e	-0.025240924
156	0x3d526c13	0.0513726
157	0x3e039125	0.12848337
158	0x3da24afc	0.079244584
159	0x3c83171b	0.016002228
160	0xbdf1decf	-0.118100755
161	0xbdcb30ee	-0.09921442
162	0x3de9c20c	0.11413965
163	0xbd922d0b	-0.071374975
164	0x3dc30101	0.09521676
165	0x3cc20ac6	0.023686778
166	0x3df85e50	0.12127364
167	0xbd3636ff	-0.044486042
168	0x3c9ddf32	0.019271467
169	0x3c4b8543	0.012421909
170	0xbd7f6472	-0.06235165
171	0xbaa0e55a	-0.0012275383
172	0xbd068a83	-0.03284694
173	0x3cd79eed	0.026320899
174	0x3ccce701	0.025012495
175	0x399ce31b	0.00029923845
176	0xbd9acbcb	-0.07558402
177	0xbdaca193	-0.08429255
178	0x3da6c703	0.08143427
179	0x3d61bdab	0.055112522
180	0x3dfbbf5d	0.12292359
181	0x3d6545e5	0.05597486
182	0xbd2abfba	-0.04168675
183	0xbe10f4de	-0.1415591
184	0xbcfa6e4b	-0.03057017
185	0xbd720a82	-0.059092052
186	0x3ba62ca6	0.0050712405
187	0x3e044850	0.1291821
188	0x3ded7053	0.1159369
189	0x3e03c587	0.1286832
190	0x3df5cf19	0.12002391
191	0x3d73af65	0.05949344
192	0xbc24200d	-0.010017407
193	0x3e17e8c1	0.14834882
194	0xbd44275f	-0.04788911
195	0x3dab785a	0.083725646
196	0xbd9b7498	-0.07590598
197	0x3de6223f	0.11237001
198	0xbb215ff8	-0.0024623852
199	0xbd6dba1b	-0.058038812
200	0x3d6e605f	0.058197375
201	0x3c172d76	0.009227147
202	0x3a969931	0.0011489746
203	0x3c678f9e	0.014133362
204	0x3e0b7007	0.13616954
205	0xbc881faa	-0.016616661
206	0x3df8f0d8	0.12155312
207	0xbd0db1a4	-0.03459324
208	0xbdaef626	-0.08543043
209	0x3ceb1141	0.02869475
210	0x3d0ef4a1	0.034901265
211	0xbd16aaf9	-0.036784146
212	0x3de65fe8	0.112487614
213	0x3cbded34	0.023184396
214	0xbcc34d9b	-0.023840716
215	0x3d476396	0.048678957
216	0x3dce6fec	0.10079941
217	0x3d3aca84	0.04560329
218	0x3cd55d24	0.02604539
219	0xbdd8103f	-0.10549974
220	0x3e03314e	0.12811777
221	0x3d5fe20d	0.05465894
222	0x3d03b721	0.032157067
223	0x3daab739	0.08335728
224	0xbd6e2b3f	-0.05814671
225	0x3e10024f	0.1406338
226	0x3d32fd0f	0.043698367
227	0x3deb22d2	0.11481251
228	0x3d1d4c4c	0.03840284
229	0x3d953c8e	0.072869405
230	0x3c83f199	0.016106414
231	0x3dcb7e1b	0.09936162
232	0xbd587d60	-0.052853942
233	0x3dcce4d3	0.10004582
234	0x3c9369d5	0.0179948
235	0x3d5371db	0.051622253
236	0xbd895c73	-0.067070864
237	0x3d3e44a7	0.04645219
238	0x3e41a5ba	0.18910876
239	0x3d9b3b6e	0.07579695
240	0xbd0a8e83	-0.033827316
241	0xbcac8f4f	-0.021064429
242	0x3dd5abd6	0.10433166
243	0x3c5dbe5e	0.013534157
244	0x3dbad8d7	0.0912339
245	0xbc6967d4	-0.014245946
246	0xbcbaae25	-0.022788117
247	0xbccf29c2	-0.025288466
248	0x3df578a9	0.11985905
249	0x3d9f257a	0.0777082
250	0xbca152f4	-0.019692875
251	0xbda5aa0b	-0.08089074
252	0xbd30ce32	-0.043165393
253	0x3dbd053e	0.092295155
254	0x3c8d5cc4	0.017256148
255	0x3e12f887	0.14352618

lstm1.bias_hh_l0 f4 [256]
0	0x3d6d43e4	0.057926074
1	0x3c60ab77	0.013712755
2	0xbde2091c	-0.11036894
3	0x3e037cf8	0.1284064
4	0x3e2339a2	0.15939954
5	0x3d906f2a	0.07052453
6	0x3d923037	0.071381025
7	0x3d22fc3c	0.03979133
8	0xbd8b344f	-0.067970864
9	0x3d7dd371	0.061969224
10	0xbdbb4494	-0.091439396
11	0xbdb42136	-0.08795397
12	0xbd0096f4	-0.03139396
13	0xbc5155e9	-0.01277683
14	0x3e3df139	0.1854905
15	0x3de5c687	0.11219507
16	0x3da42425	0.080147065
17	0x3e07b264	0.13251644
18	0x3e199889	0.14999594
19	0x3c9b1155	0.018929163
20	0xbd92ba15	-0.071643986
21	0xbd5f0719	-0.05445013
22	0xbd94fd3c	-0.07274863
23	0x3e07069d	0.13186117
24	0xbb908149	-0.0044099432
25	0xbdedeb4f	-0.11617147
26	0x3ca562dc	0.020188741
27	0x3e09b00f	0.13446067
28	0x3d2407dc	0.040046558
29	0xbda1b706	-0.07896237
30	0xbd80eb16	-0.06294839
31	0x3d28ec1a	0.04124079
32	0xbdaf48cc	-0.08558807
33	0x3d9d8754	0.076918274
34	0xbd548239	-0.051882003
35	0x3e1d9950	0.15390515
36	0x3b90f557	0.004423778
37	0xbcc563f3	-0.024095511
38	0x3d911012	0.07083143
39	0x3dc9411f	0.09826874
40	0xbcf1f28e	-0.029534604
41	0x3d0e18f1	0.034691755
42	0x3ca29246	0.01984514
43	0x3e16197b	0.14658158
44	0xbd6b8b33	-0.057505798
45	0x3dd8a76b	0.105788074
46	0x3dfe2b42	0.124105945
47	0xbd81cf91	-0.06338418
48	0xbd9f46b8	-0.077771604
49	0x3c02dbed	0.007987005
50	0x3e0b1e44	0.13585764
51	0xbda47d25	-0.08031682
52	0x3caee375	0.021348694
53	0x3d55cac6	0.052195333
54	0x3cf6c43b	0.030122867
55	0xbcac0b62	-0.021001521
56	0xbd135f40	-0.03597951
57	0xbcea818d	-0.028626228
58	0x3e0658aa	0.1311976
59	0x3da7925f	0.08182215
60	0x3d6e85fc	0.058233246
61	0x3db6f2eb	0.08933052
62	0x3e3de73f	0.18545245
63	0xbd3d0327	-0.046145584
64	0xbcc87348	-0.024469033
65	0xbc94f309	-0.018182294
66	0xbd80fad4	-0.06297842
67	0xbd7dbc53	-0.061947178
68	0xbd377d0a	-0.04479698
69	0x3d8ef2ce	0.06979905
70	0x3d92b132	0.071627036
71	0x3de52d08	0.1119023
72	0x3db4043e	0.08789872
73	0x3cc4ae2d	0.024008835
74	0xbdac85b0	-0.08423936
75	0x3d6cfb23	0.05785669
76	0x3d192dc9	0.03739718
77	0xbd97b402	-0.07407381
78	0xbbdcaf3e	-0.0067347577
79	0xbddc42bd	-0.10754917
80	0xbdec00c8	-0.115235865
81	0x3d134f68	0.0359644
82	0xbd71faa2	-0.059076913
83	0x3cd061f7	0.025437338
84	0x3d506bb7	0.050883975
85	0xbd0702df	-0.032961722
86	0x3d3c1998	0.045922846
87	0xbca5b391	-0.020227225
88	0x3db1ecb7	0.08687728
89	0x3b0ffcf6	0.0021970845
90	0xbded0fbc	-0.11575267
91	0x3daa8695	0.08326451
92	0x3e02bdba	0.12767687
93	0x3cc3b508	0.023890033
94	0xbde519e9	-0.111865826
95	0xbd424d59	-0.047437046
96	0xbdc45f9a	-0.09588547
97	0xbd9fcc86	-0.078026816
98	0x3cd86d92	0.026419435
99	0x3dbe81b3	0.09302082
100	0xbe067b6a	-0.13133016
101	0x3e1bf215	0.15229066
102	0x3c468ad4	0.01211806
103	0x3e076dd4	0.1322549
104	0x3da77919	0.081773944
105	0xbd5c4936	-0.053780757
106	0x3e185117	0.14874683
107	0xbd4d2ffd	-0.050094593
108	0xbd6beb01	-0.057597164
109	0x3dff43fd	0.124641396
110	0x3c1b42cc	0.009476375
111	0xbe0fbd72	-0.14037111
112	0x3e22138a	0.15827766
113	0xbdc12521	-0.0943091
114	0x3da2e84b	0.079544626
115	0x3d4be0b3	0.049774837
116	0xbc8c39e4	-0.017117448
117	0x3e03cfac	0.1287219
118	0xbcc65e77	-0.024214966
119	0x3d3bb41e	0.04582607
120	0x3e02946d	0.12751932
121	0x3d93bd56	0.07213847
122	0xbddc2be4	-0.10750559
123	0xbdcc04ac	-0.099618286
124	0x3c8a0157	0.016846342
125	0x3d6b3662	0.05742491
126	0x3da19f47	0.07891708
127	0x3da66e79	0.0812654
128	0xbd3e4ea9	-0.046461735
129	0x3d240f0a	0.040053405
130	0xbd9e2a95	-0.07722966
131	0xbcce34d2	-0.025171671
132	0x3d46489e	0.048409097
133	0xbdd5293c	-0.104082555
134	0x3dab5948	0.083666384
135	0x3dcf7eb9	0.10131592
136	0x3c63d763	0.013906333
137	0x3d23b08a	0.039963283
138	0x3d9d2ef9	0.07674975
139	0xbdcd6efe	-0.10030936
140	0x3d415b4a	0.0472062
141	0xbd9378cd	-0.07200775
142	0x3d3fbb69	0.046809588
143	0x3d069a34	0.032861903
144	0xbbab6792	-0.0052308524
145	0x3d52b2a0	0.05143988
146	0x3d7ce263	0.061739337
147	0x3c607ec1	0.0137020955
148	0xbd8d64e5	-0.0690401
149	0xbcc33dd1	-0.023833187
150	0xbd9d1247	-0.07669502
151	0x3c6dbde8	0.014510609
152	0xbd6f4b94	-0.058421686
153	0xbdaa0569	-0.08301813
154	0xbd273b15	-0.04082783
155	0x3ddf526c	0.109043926
156	0x3db4d4c0	0.08829641
157	0x3d49af1e	0.04923927
158	0x3cb5b6a6	0.02218182
159	0x3d94bc68	0.07262498
160	0x3d50beb0	0.050963104
161	0xbda171b6	-0.07883017
162	0x3d9a3008	0.075286925
163	0xbc9cde00	-0.019148827
164	0xbad83c30	-0.001649743
165	0xbcb98110	-0.02264455
166	0xbd827b84	-0.06371215
167	0x3d589019	0.052871797
168	0x3e0325fb	0.12807457
169	0xbd43ba78	-0.047785252
170	0xbcd8ef59	-0.026481317
171	0xbb953e2a	-0.0045545297
172	0x3d715603	0.058919918
173	0x3d279d78	0.04092166
174	0x3d7d1f13	0.061797213
175	0xbc131ab3	-0.008978534
176	0xbd965cdd	-0.07341931
177	0x3d06520b	0.032793086
178	0x3e0c2316	0.13685259
179	0xbd6c2921	-0.05765641
180	0xbd3e5289	-0.04646543
181	0xbdc509c2	-0.09621002
182	0x3d020fa0	0.031753182
183	0xbdb259a2	-0.08708502
184	0x3dee11c9	0.11624486
185	0x3c876a88	0.01653029
186	0x3d58ca38	0.052927226
187	0x3e0cea22	0.1376119
188	0x3e0749dc	0.13211769
189	0x3d687f75	0.056762177
190	0x3de8cf33	0.11367645
191	0xbdc63d0c	-0.096796125
192	0x3dce3440	0.1006856
193	0x3dd80175	0.10547153
194	0x3de4ac6e	0.11165701
195	0x3d92e88a	0.071732596
196	0xbd00bdb9	-0.031430934
197	0x3e12fd82	0.14354518
198	0x3dcedafc	0.10100362
199	0xbcad5420	-0.021158278
200	0x3e252744	0.1612826
201	0x3ccd3101	0.025047781
202	0x3dae4e3e	0.08511017
203	0x3ca89f23	0.020583695
204	0xbd78b7e3	-0.060722243
205	0x3bd98aeb	0.0066388748
206	0x3c3d3579	0.011548393
207	0xbce4fa16	-0.027951282
208	0x3b9ce9a1	0.004788593
209	0x3cdc5323	0.026895111
210	0x3e1e2104	0.15442282
211	0xbd8c8d03	-0.06862833
212	0x3df2055c	0.118174285
213	0x3d8feb0e	0.07027255
214	0xbd870028	-0.06591827
215	0x3c6608c6	0.014040178
216	0x3e0f947a	0.14021483
217	0xbcd77815	-0.026302377
218	0x3dcc805a	0.099854186
219	0xbd950c6f	-0.07277762
220	0x3de199da	0.11015673
221	0x3ca3878b	0.019962093
222	0xbc33c9e0	-0.010973424
223	0x3e33d4da	0.17561665
224	0xbc9a2d24	-0.018820353
225	0xbc2fdb22	-0.010733398
226	0xbaeaaf55	-0.0017905036
227	0x3df440ee	0.11926447
228	0x3ca950f2	0.02066848
229	0x3dc87c76	0.09789364
230	0x3d32f8af	0.043694194
231	0x3df7c6fb	0.120984994
232	0x3e1c861f	0.15285538
233	0x3dc095d3	0.09403577
234	0x3dd9f960	0.10643268
235	0x3d5146fb	0.051093083
236	0x3c855c24	0.016279288
237	0xbc996418	-0.018724486
238	0x3e4003f1	0.18751504
239	0x3c936e78	0.017997012
240	0x3dffa705	0.12483028
241	0x3dde455d	0.10853074
242	0x3dd424e6	0.103586
243	0x3e3ea9de	0.18619487
244	0x3da44fd1	0.08023036
245	0x3daa4f04	0.08315852
246	0x3d35a53d	0.044347037
247	0x3d774d69	0.06037656
248	0x3defa967	0.11702233
249	0x3bff35be	0.007788389
250	0x3da1bcb1	0.07897318
251	0x3cccfb0d	0.025022054
252	0x3dd85caf	0.10564553
253	0x3c2738da	0.010206426
254	0xbce00b98	-0.027349278
255	0x3db70276	0.08936016

lstm2.weight_ih_l0 f4 [256, 64]
0	0x3df2a1f4	0.11847296
1	0x3d99f0e0	0.075166464
2	0x3d709154	0.058732346
3	0xbdad6e9c	-0.08468363
4	0x3de281c6	0.110599086
5	0xbb8f3a80	-0.0043709874
6	0x3be09440	0.0068536103
7	0x3d92ee60	0.07174373
8	0xbdbc4f7c	-0.09194848
9	0xbd8282e2	-0.0637262
10	0x3c8bb5c0	0.017054439
11	0xbd1b2d20	-0.03788483
12	0xbde70674	-0.11280528
13	0xbd2e0eb8	-0.042494506
14	0xbdf902ea	-0.12158759
15	0x3cc003c0	0.023439288
16	0xbd163ea8	-0.036680847
17	0xbd4ee938	-0.050515383
18	0xbd82bae8	-0.06383306
19	0xbde980c4	-0.11401513
20	0xbdc91934	-0.0981926
21	0x3ab98980	0.0014155358
22	0x3d041338	0.03224489
23	0xbced7790	-0.028987676
24	0xbde8dc3a	-0.1137013
25	0x3c9fdc60	0.019514263
26	0xbde2de68	-0.11077577
27	0x3da8e154	0.08246103
28	0xbde3036e	-0.110846385
29	0xbd00c720	-0.0314399
30	0x3deccff2	0.115631
31	0xbdb23ade	-0.08702634
32	0x3c8a4fb8	0.016883716
33	0x3da08100	0.07837105
34	0xbd8a82b2	-0.067632094
35	0x3a8d2800	0.0010769367
36	0xbd549108	-0.051896125
37	0x3d810cda	0.06301279
38	0x3dac7180	0.08420086
39	0x3cb4bfe0	0.02206415
40	0xbd461874	-0.048363164
41	0xbb49b800	-0.0030779839
42	0xbd2fbfd8	-0.042907566
43	0x3c854cc0	0.016271949
44	0x3defb1ba	0.117038205
45	0x3db52694	0.08845249
46	0x3d813274	0.06308451
47	0xbcf3af18	-0.029746577
48	0x3cb1df28	0.021712855
49	0xbdec6f36	-0.11544649
50	0xbdf86364	-0.12128332
51	0xbba06d00	-0.0048958063
52	0x3ba520c0	0.0050393045
53	0x3da50d6e	0.08059202
54	0xbd947678	-0.072491586
55	0xbda35d42	-0.07976772
56	0xbdaecc60	-0.08535075
57	0xbc7a1390	-0.015263453
58	0xbb153dc0	-0.0022772402
59	0xbdec0eee	-0.11526285
60	0xbd6f7c4c	-0.058468148
61	0xbdd0554a	-0.101725176
62	0xbdd017b6	-0.101607725
63	0xbd30f2ec	-0.04320042
64	0xbde21f76	-0.11041157
65	0xbda3c0a2	-0.07995726
66	0xbc2942e0	-0.010330886
67	0xbd8308d2	-0.06398167
68	0xbc747700	-0.01492095
69	0x3cbb76f8	0.022883877
70	0xbdb416a2	-0.08793379
71	0xbc8456d8	-0.016154692
72	0xbdc6163e	-0.09672211
73	0x3dcb0494	0.099129826
74	0x3daf061a	0.08546086
75	0x3d8620ee	0.065492496
76	0x3d24551c	0.04012023
77	0xbddc1f00	-0.107481
78	0xbdcf99cc	-0.10136756
79	0x3d114c04	0.035472885
80	0xbd505d90	-0.05087048
81	0x3d87cd7e	0.066309914
82	0xba948f80	-0.001133427
83	0x3d6854a4	0.056721345
84	0x3c92d560	0.01792401
85	0xbd82dcf6	-0.06389801
86	0x3d77485c	0.06037174
87	0x3b2fd800	0.0026831627
88	0xbd8439a0	-0.064563036
89	0xbba424a0	-0.005009249
90	0xbde2fc4a	-0.110832766
91	0x3df2d258	0.11856526
92	0x3d941506	0.072305724
93	0xbd71688c	-0.058937594
94	0x3dd100c0	0.10205221
95	0x3d9f25f0	0.07770908
96	0xbd95e9aa	-0.073199585
97	0xbd965aa6	-0.073415086
98	0xbd947074	-0.07248011
99	0xbde03a64	-0.10948637
100	0x3c1ef9f0	0.009703144
101	0x3d1b1b24	0.03786768
102	0xbc428560	-0.011872619
103	0xbca073e8	-0.019586518
104	0xbd3542bc	-0.044253096
105	0x3da3b894	0.0799419
106	0x3ddd41b6	0.10803549
107	0x3de301ae	0.11084305
108	0xbde6a5fc	-0.11262128
109	0xbda698a0	-0.0813458
110	0xbb40b980	-0.0029407442
111	0xbd7b6270	-0.061373174
112	0xbdaf63f0	-0.085639834
113	0x3dc15a8c	0.094410986
114	0xbde75f4e	-0.11297475
115	0xbd0acd74	-0.03388734
116	0xbdf169c4	-0.11787751
117	0x3b28dbc0	0.0025765747
118	0xbd037634	-0.03209515
119	0xbcf8fbf8	-0.030393586
120	0xbcda8400	-0.02667427
121	0x3da0548a	0.078286245
122	0xbcfc54b0	-0.0308021
123	0xbd913af2	-0.07091321
124	0x3d0d46bc	0.034491286
125	0x3dde4f54	0.108549744
126	0x3d24d7d0	0.040244877
127	0x3da6f1cc	0.08151588
128	0xbdeb6e80	-0.114956856
129	0x3c7af9f0	0.015318379
130	0xbd98d564	-0.07462576
131	0xbdf29a3c	-0.11845824
132	0xbd4a6aac	-0.049418136
133	0xbdb74718	-0.08949107
134	0x3d74f8c8	0.05980757
135	0xbdec8c24	-0.11550167
136	0xbdb9a23a	-0.090641454
137	0xbdb067a0	-0.08613515
138	0x3d9ce2f8	0.07660478
139	0x3dea8272	0.11450662
140	0x3c7561e0	0.0149769485
141	0x3ca5f398	0.020257756
142	0xbddc93ea	-0.107704
143	0x3d5b29d4	0.053506687
144	0x3df63002	0.120208755
145	0x3c4f65b0	0.0126585215
146	0x3dfcb77e	0.12339686
147	0xbdcc1672	-0.099652186
148	0xbd73b334	-0.059497073
149	0x3dfdbea4	0.123898774
150	0x3d9a51d8	0.07535142
151	0xbdd4348c	-0.10361585
152	0x3df59dbe	0.119929776
153	0x3db0cd50	0.0863291
154	0x3db5f52e	0.08884655
155	0x3d6a50a0	0.057205796
156	0xbd5abe50	-0.053404152
157	0xbc940068	-0.0180666
158	0x3d74596c	0.05965559
159	0x3da0abb8	0.07845253
160	0xbd525320	-0.051348805
161	0xbdd1e630	-0.10248983
162	0xbcb7f200	-0.022454262
163	0xbc3e5db0	-0.0116190165
164	0x3da8bd60	0.082392454
165	0xbb0948c0	-0.0020947903
166	0xbd177cac	-0.03698413
167	0x3d9c5d32	0.07634963
168	0xbcc910d8	-0.024544165
169	0x3df9c8b0	0.12196481
170	0xbdf7a5c0	-0.12092161
171	0xbde9966a	-0.11405642
172	0x3ba5f600	0.005064726
173	0xbd44f4a4	-0.04808487
174	0xbdda6196	-0.10663144
175	0xbdeb1eea	-0.11480506
176	0x3d445ed4	0.047941998
177	0xbdffa590	-0.124827504
178	0x3cbf5098	0.02335386
179	0x3dfd84e0	0.123788595
180	0x3d970d4a	0.073755816
181	0x3c6749c0	0.014116704
182	0x3dc9c28c	0.0985156
183	0x3df7dfee	0.12103258
184	0x3d01ae54	0.031660393
185	0xbbb55cc0	-0.0055347383
186	0xbdfcc116	-0.12341516
187	0xbd1420fc	-0.03616427
188	0xbd9b7154	-0.07589975
189	0x3c55c3c0	0.013047159
190	0x3dc02940	0.09382868
191	0xbd847bf0	-0.06468952
192	0x3dbb4e46	0.09145789
193	0xbde7c5b0	-0.11317003
194	0xbcde94d0	-0.027170569
195	0x3dd2a152	0.10284676
196	0xbdfcfba8	-0.12352687
197	0xbd1bcc90	-0.038036883
198	0xbd571da8	-0.052518517
199	0x3d8aa2f0	0.06769359
200	0x3dd94b18	0.10610026
201	0x3dfa3d12	0.122186795
202	0x3dd77390	0.10520089
203	0xbdc84420	-0.09778619
204	0xbcb8c548	-0.022555009
205	0x3d2dbfe4	0.04241933
206	0xbdab3f3c	-0.083616704
207	0x3cb678c0	0.022274375
208	0xbcc0cbd0	-0.023534685
209	0x3c97d948	0.018536225
210	0xbc5bc3b0	-0.013413355
211	0x3d92bfec	0.071655124
212	0x3b69b680	0.0035661757
213	0x3d851a9e	0.064992175
214	0xbd832ef2	-0.064054385
215	0xbdaeb7da	-0.08531161
216	0xbdeb1882	-0.11479284
217	0x3d31f518	0.04344663
218	0x3dababfc	0.08382413
219	0x3d1a8a88	0.03772977
220	0xbd54f7c0	-0.051994085
221	0x3c6b4ca0	0.014361531
222	0x3dee24e0	0.11628127
223	0x3de7df9c	0.11321947
224	0xbd6b6a30	-0.057474315
225	0xbcc52af8	-0.02406834
226	0xbdd5bdf6	-0.10436623
227	0xbce27200	-0.02764225
228	0xbdc75a3a	-0.09734006
229	0xbd304300	-0.043032646
230	0xbd267f64	-0.040648833
231	0xbdfc0cac	-0.123071045
232	0xbd92c704	-0.071668655
233	0xb991e400	-0.00027826428
234	0x3d2025a8	0.03909841
235	0xbdb2c504	-0.08728984
236	0x3db46448	0.0880819
237	0x3b6b1400	0.0035870075
238	0xbda6cc04	-0.08144382
239	0xbdb83ab6	-0.08995573
240	0x3dcf33d8	0.1011731
241	0x3d149a88	0.036280185
242	0xbc78b640	-0.015180171
243	0x3cba4fc0	0.022743106
244	0x3bc521e0	0.006016001
245	0x3de348e0	0.11097884
246	0xbdd7227c	-0.10504624
247	0x3bb5b760	0.0055455416
248	0xbd0b6fd4	-0.034042194
249	0xbd3826c8	-0.04495886
250	0xbd052a4c	-0.03251104
251	0xbd3424a4	-0.043980256
252	0x3de3350a	0.11094101
253	0x3d8845dc	0.066539496
254	0x3db0b13c	0.08627555
255	0xbdfddde8	-0.12395841

lstm2.weight_hh_l0 f4 [256, 64]
0	0x3ca227a0	0.019794285
1	0x3d8eb2be	0.06967686
2	0xbd270d94	-0.040784433
3	0xbc2c8560	-0.010529846
4	0x3c5585f0	0.0130324215
5	0x3c2fc4e0	0.010728091
6	0x3ddfbea2	0.10925032
7	0x3d122fe4	0.035690203
8	0x3d7b38f4	0.06133361
9	0x3d558fac	0.05213897
10	0xbda90b4c	-0.08254108
11	0xbdefc608	-0.11707693
12	0xbdb5f212	-0.08884062
13	0xbda01f3c	-0.078184575
14	0xbd647858	-0.05577883
15	0xbde6707c	-0.112519234
16	0x3dc07d60	0.093989134
17	0xbda88050	-0.08227599
18	0x3cef9200	0.029244423
19	0x3db115f6	0.08646767
20	0x3cc88570	0.02447769
21	0xbdd682de	-0.1047418
22	0x3cfa93d8	0.030588076
23	0x3dd49020	0.10379052
24	0xbcd34dc0	-0.02579391
25	0xbb1ab180	-0.0023604333
26	0x3d3243f0	0.04352182
27	0xbd1797c0	-0.037009954
28	0xbdb60bd8	-0.08888978
29	0xbda4a68e	-0.0803958
30	0x3cffdb18	0.031232402
31	0xbd226b04	-0.03965284
32	0x3d9a7f5e	0.075438246
33	0x3dc28bc6	0.09499316
34	0x3d32341c	0.043506727
35	0x3d90da3e	0.070728764
36	0x3d7ed4b0	0.062214553
37	0xbcd55b50	-0.026044518
38	0xbd8123c6	-0.06305651
39	0xbc6ee960	-0.014582008
40	0xbdeb28f0	-0.114824176
41	0x3d9afeaa	0.075681046
42	0x3dc3bdfe	0.095577225
43	0x3cefd3f0	0.029275864
44	0xbd28060c	-0.04102139
45	0xbde3e948	-0.11128479
46	0xbd9da552	-0.07697548
47	0x3d202580	0.039098263
48	0x3c8d43b8	0.017244205
49	0x3d708584	0.05872108
50	0xbdb7b212	-0.08969511
51	0xbd4e8c34	-0.050426677
52	0xbdfdf1f2	-0.12399663
53	0xbde85400	-0.11344147
54	0x3d1ea9bc	0.03873609
55	0x3d98c830	0.07460058
56	0xbdd6564a	-0.10465677
57	0xbdbb0ec0	-0.09133673
58	0xbdb8f0a0	-0.090302706
59	0xbcc8ee78	-0.024527773
60	0xbd1b986c	-0.037987158
61	0x3a96f480	0.0011516958
62	0xbd6a03d4	-0.057132557
63	0xbdd5e0fa	-0.104433015
64	0xbd5d2e28	-0.053999096
65	0xbdccaad2	-0.09993519
66	0x3dc9b802	0.0984955
67	0xbc6cb920	-0.014448434
68	0x3be1cd40	0.006890923
69	0x3d08bfc0	0.033385992
70	0x3d68b2f4	0.056811288
71	0x3d78b990	0.06072384
72	0x3c1563d0	0.009118035
73	0xbddd07ca	-0.10792501
74	0x3c5583a0	0.01303187
75	0xbdd4c74a	-0.10389574
76	0xbdf92ff6	-0.12167351
77	0x3db92694	0.09040561
78	0xbded43d6	-0.11585204
79	0xbc6fe2e0	-0.014641494
80	0xbb946600	-0.004528761
81	0xbd1a6d8c	-0.03770213
82	0xbdd910e4	-0.10598925
83	0xbdada9da	-0.08479662
84	0xbd3e7890	-0.046501696
85	0x3d4f1f48	0.05056694
86	0xbb804ee0	-0.0039156526
87	0x3df391ce	0.118930444
88	0x3d8efeb8	0.069821775
89	0xbde50b3e	-0.11183785
90	0xbdd4e12a	-0.10394509
91	0xbdbd99f0	-0.09257877
92	0x3cbe1200	0.023201942
93	0x3cb1c150	0.021698624
94	0x3dcb5068	0.09927446
95	0x3c51cb80	0.012804866
96	0x3d7a4eb4	0.061110213
97	0xbd9dde50	-0.07708418
98	0xbdb535a0	-0.08848119
99	0xbde1a2ec	-0.11017403
100	0xbddf7fcc	-0.10913047
101	0x3d9e9ba0	0.07744527
102	0xbd978998	-0.07399291
103	0x3d3d40c0	0.04620433
104	0x3d6db2f8	0.058032006
105	0xbc8adca8	-0.01695092
106	0xbd8019ee	-0.06254946
107	0x3d36ae4c	0.044599816
108	0xbdf403ca	-0.11914785
109	0xbc2da990	-0.010599509
110	0x3db8d18a	0.090243414
111	0xbdd17a40	-0.102283955
112	0x3db16bd4	0.08663145
113	0xbd2d97bc	-0.042381033
114	0x3dc65134	0.09683457
115	0x3d415628	0.047201306
116	0xbdfd8cf6	-0.12380402
117	0xbc3238c0	-0.010877788
118	0xbd613748	-0.05498436
119	0xbdddb7a0	-0.10826039
120	0xbddb3d74	-0.10705081
121	0xbd208f7c	-0.039199337
122	0x3de62c34	0.112389
123	0x3bbfafe0	0.0058498234
124	0xbdebcaa2	-0.115132585
125	0x3d808656	0.062756225
126	0xbd10700c	-0.035263106
127	0xbdba1cc0	-0.09087515
128	0xbda29994	-0.07939449
129	0xbd2bf0cc	-0.04197769
130	0x3c5415f0	0.012944683
131	0x3c674380	0.014115214
132	0xbcecc780	-0.028903723
133	0xbc8024f0	-0.015642613
134	0xbd4ec5b4	-0.050481513
135	0xbd778320	-0.060427785
136	0x3ad7a200	0.0016451478
137	0x3d3d8114	0.046265677
138	0xbd80ea80	-0.06294727
139	0x3d3de2a8	0.046358734
140	0x3dca14f2	0.09867276
141	0xbc803660	-0.015650928
142	0xbd5d5b7c	-0.054042324
143	0xbc942ee0	-0.018088758
144	0xbdea0f20	-0.11428666
145	0xbc451650	-0.0120292455
146	0xbc966f38	-0.01836358
147	0xbb81f720	-0.003966227
148	0x3dae7fbc	0.08520457
149	0xbcee5600	-0.029093742
150	0xbcee3e88	-0.029082552
151	0xbbfe2600	-0.007755995
152	0x3db6b568	0.08921319
153	0x3d23501c	0.03987132
154	0xbc328950	-0.010896996
155	0x3d61fa28	0.05517021
156	0xbddca764	-0.10774115
157	0x3c8cd9b0	0.017193645
158	0x3df7d020	0.121002436
159	0xbcb9e840	-0.022693753
160	0x3dc77872	0.0973977
161	0xbd93e716	-0.072218105
162	0x3cf12fc8	0.02944173
163	0x3df6d18e	0.12051688
164	0xbdf67fea	-0.120361164
165	0xbc74e3c0	-0.014946878
166	0xbdb0a8dc	-0.08625957
167	0x3cbd1f18	0.023086116
168	0x3c628570	0.013825759
169	0xbd620a44	-0.05518557
170	0x3c001750	0.007818058
171	0x3de885ea	0.11353667
172	0x3d778980	0.060433865
173	0x3dbb17f8	0.09135431
174	0x3dec3980	0.11534405
175	0xbb8f68c0	-0.004376501
176	0x3c8271c8	0.015923396
177	0x3ce95930	0.02848491
178	0xbdd7fd18	-0.10546321
179	0xbd82dd18	-0.063898265
180	0xbd090284	-0.033449665
181	0x3da829de	0.082111105
182	0xbdd4d4a6	-0.10392122
183	0x3db4fa9e	0.08836864
184	0xba8bde80	-0.0010671169
185	0xbd2c0c48	-0.0420039
186	0x3de68290	0.112553716
187	0xbd0ce848	-0.03440121
188	0xbd38a6bc	-0.045080885
189	0x3c4c9aa0	0.012488037
190	0xbd8c4c2e	-0.068504676
191	0x3dc97dd4	0.09838453
192	0xbc990e88	-0.018683687
193	0xbd8031c0	-0.06259489
194	0x3d168854	0.036751106
195	0x3db943b0	0.090461135
196	0xbda9041e	-0.082527384
197	0x3bf8b700	0.0075901747
198	0x3de35c18	0.1110155
199	0xbd59b354	-0.053149536
200	0xbd8d0174	-0.06885043
201	0xbcd657f8	-0.026164994
202	0x3dbfcd52	0.093653336
203	0xbdd5c3a6	-0.104377076
204	0x3c99dfb0	0.01878342
205	0x3da2a000	0.07940674
206	0xbdf58e48	-0.119900286
207	0xbdaa9c5a	-0.08330603
208	0xbdfe1046	-0.12405448
209	0xbc4ab0b0	-0.012371227
210	0x3dddfb24	0.10838917
211	0xbd089494	-0.03334482
212	0xbcf39d20	-0.029738009
213	0xbba429a0	-0.005009845
214	0x3de4bc2a	0.11168702
215	0x3c273650	0.01020582
216	0xbbce85c0	-0.0063025653
217	0xbd0e2eac	-0.03471248
218	0xbd0cb954	-0.03435643
219	0x3c01a700	0.007913351
220	0xbd4c447c	-0.04987
221	0xbd93eace	-0.0722252
222	0xbdae9430	-0.08524358
223	0xbde435e4	-0.11143091
224	0x3c89a278	0.016801104
225	0xbdaf562c	-0.08561358
226	0xbc9a2878	-0.018818125
227	0xbd856936	-0.06514208
228	0xbccf0490	-0.02527073
229	0xbaae5080	-0.0013299137
230	0x3b32a100	0.0027256608
231	0xbd81abd4	-0.06331602
232	0xbde2914c	-0.110628694
233	0xbd067318	-0.032824606
234	0x3b1bca80	0.0023771822
235	0xbcad5978	-0.021160826
236	0xbbcfb7c0	-0.0063390434
237	0x3dd73af6	0.10509293
238	0x3d99fa8e	0.07518493
239	0x3d785248	0.060625345
240	0x3dcc8934	0.09987107
241	0xbbf05480	-0.007334292
242	0x3d59401c	0.053039655
243	0xbd6ac928	-0.057320744
244	0xbdd6c892	-0.104874745
245	0xbdacfe86	-0.08446984
246	0x3deac8ae	0.11464058
247	0xbddba490	-0.10724747
248	0x3dfb92f2	0.12283887
249	0xbdc10ee0	-0.09426665
250	0x3ce017f8	0.02735518
251	0x3d70e124	0.05880846
252	0x3dc12c5a	0.094322875
253	0x3d568424	0.052372113
254	0x3df43edc	0.11926052
255	0xbcc56c58	-0.024099514

lstm2.bias_ih_l0 f4 [256]
0	0xbde3b024	-0.111175805
1	0x3cd27110	0.025688678
2	0xbde8a66c	-0.113598675
3	0x3d9b3b92	0.075797215
4	0xbdb27a4e	-0.08714734
5	0x3d4d9900	0.05019474
6	0x3d8d8aee	0.06911264
7	0x3d8cd18e	0.06875907
8	0xbc9c9558	-0.019114181
9	0x3d1346e4	0.03595628
10	0x3dac7686	0.08421044
11	0x3dd7fef8	0.10546678
12	0x3d5390a0	0.051651597
13	0xbd079fa4	-0.03311123
14	0x3dfe69ac	0.12422499
15	0x3d0067cc	0.03134899
16	0x3c8cc770	0.017184943
17	0x3da70c18	0.081566036
18	0x3dd93b78	0.10607046
19	0x3da24e3e	0.0792508
20	0x3da54a90	0.08070862
21	0x3d2e83e0	0.042606235
22	0xbcb79240	-0.022408605
23	0xbce031a0	-0.027367413
24	0x3dd3bfca	0.10339315
25	0xbc5d3d30	-0.013503358
26	0x3d218660	0.03943479
27	0xbd77bd58	-0.060483307
28	0xbd305f04	-0.043059364
29	0x3d911904	0.070848495
30	0x3d1cfbf0	0.038326204
31	0x3d8bb9d2	0.06822552
32	0x3c7085a0	0.014680296
33	0xbdb70508	-0.089365065
34	0x3d45618c	0.04818873
35	0x3d55efb0	0.052230537
36	0xbcb7ae18	-0.022421882
37	0x3d201220	0.039079785
38	0x3cfcb098	0.030845925
39	0xbd533924	-0.051568165
40	0xbd0bb948	-0.034112245
41	0x3c437080	0.011928678
42	0x3bb2c100	0.0054551363
43	0xbddb2ffa	-0.1070251
44	0x3c8e44c8	0.017366782
45	0xbd758a1c	-0.059946164
46	0xbca2b2e0	-0.019860685
47	0xbdf9262c	-0.12165484
48	0x3c187b20	0.009306699
49	0xbd1b365c	-0.037893638
50	0xbd845e86	-0.064633414
51	0x3d0ac714	0.033881262
52	0xbd9b5be0	-0.07585883
53	0xbbc77200	-0.006086588
54	0x3d8572ce	0.06516038
55	0xbc4ba170	-0.012428626
56	0x3c2f1900	0.010687113
57	0x3dea5414	0.11441818
58	0x3d91c056	0.07116763
59	0x3d6b5f10	0.057463706
60	0x3cefe868	0.029285625
61	0x3dd627ea	0.10456832
62	0xbddb9eaa	-0.10723622
63	0x3d930ac8	0.07179791
64	0xbda25808	-0.07926947
65	0xbdf74af2	-0.120748416
66	0x3ce9c908	0.028538242
67	0xbca07b30	-0.01958999
68	0x3dc94768	0.09828073
69	0xbdb0a2a8	-0.08624774
70	0xbd3e9a4c	-0.046533868
71	0xbdd4b9ba	-0.10386987
72	0xbdaf8968	-0.0857113
73	0xbd5b4bac	-0.053538963
74	0x3ce67e80	0.028136492
75	0xbd3473ac	-0.044055626
76	0xbc8b50f0	-0.017006367
77	0x3d841c64	0.064507276
78	0xbdb82dc8	-0.08993107
79	0xbdea0f98	-0.114287555
80	0x3df251a8	0.11831981
81	0x3d0d9258	0.034563392
82	0x3cf61330	0.030038446
83	0x3cdd7518	0.027033374
84	0xbdb4580c	-0.08805856
85	0x3d8c14e2	0.068399206
86	0x3bf99820	0.0076170117
87	0x3d6c0ca4	0.057629243
88	0xbd53e058	-0.051727623
89	0xbc8a51d0	-0.016884714
90	0xbcefeec8	-0.029288664
91	0xbd1cefc4	-0.038314596
92	0x3de734e2	0.112893835
93	0xbd080040	-0.033203363
94	0x3d9cd6c2	0.07658149
95	0xbbb88c20	-0.0056319386
96	0x3dc01230	0.09378469
97	0x3d082058	0.03323397
98	0x3dde36e2	0.10850312
99	0x3ca67858	0.020321056
100	0x3c5f1b40	0.013617337
101	0xbcffdc60	-0.031233013
102	0xbd04dabc	-0.032435164
103	0x3cbab0b8	0.022789344
104	0x3c71e2e0	0.014763564
105	0x3da8925e	0.08231042
106	0x3d913932	0.07090987
107	0xbd9956b0	-0.074872375
108	0xbdeeef40	-0.11666727
109	0x3d238338	0.03992006
110	0x3be10ce0	0.00686799
111	0xbdd985be	-0.106212124
112	0x3d988564	0.07447317
113	0x3bf3d700	0.0074414015
114	0xbd9cda54	-0.0765883
115	0xbdf38992	-0.11891474
116	0xbdc82cbe	-0.09774159
117	0xbc5356f0	-0.0128991455
118	0xbca54ff8	-0.020179734
119	0x3c91d0a0	0.017799675
120	0x3df8d234	0.12149468
121	0x3d1d6230	0.038423717
122	0xbd4f1e00	-0.05056572
123	0xbda87136	-0.08224718
124	0xbd8fb574	-0.07017031
125	0xbd1a8820	-0.037727475
126	0xbdbe872e	-0.09303127
127	0xbd2dc370	-0.04242271
128	0xbdd5c3d4	-0.10437742
129	0xbdb17146	-0.08664183
130	0xbdf39098	-0.118928134
131	0x3c8efc38	0.017454252
132	0xbdf6dc30	-0.12053716
133	0x3da757ac	0.08171019
134	0x3d476ce8	0.048687845
135	0x3d4fb210	0.050706923
136	0x3d82d0c8	0.06387478
137	0xbb0d1140	-0.0021525174
138	0x3c80e5a8	0.015734509
139	0x3d5e122c	0.05421655
140	0xbc936350	-0.017991692
141	0xbdfc6d2a	-0.12325509
142	0x3d87ef86	0.06637482
143	0x3d0b5978	0.03402087
144	0x3c494640	0.012284815
145	0xbda6c9e2	-0.08143975
146	0xbd5aa9e4	-0.053384677
147	0x3ce400e8	0.027832463
148	0x3dec9852	0.1155249
149	0x3d38c23c	0.04510711
150	0xbda3b4f6	-0.079935
151	0x3d3d8014	0.046264723
152	0x3dccf9d0	0.100085855
153	0xbd9c2b40	-0.07625437
154	0x3deae2f8	0.11469072
155	0x3c4fc860	0.0126820505
156	0xbdfe71c4	-0.12424043
157	0x3de63d68	0.11242181
158	0x3cd11668	0.02552338
159	0x3dc0220e	0.093814954
160	0x3c1cecd0	0.009577945
161	0x3cdd8fc0	0.027046084
162	0x3ddbc162	0.10730244
163	0xbde285dc	-0.11060688
164	0x3d9f1ce6	0.07769184
165	0xbda83250	-0.08212721
166	0xbdc28770	-0.09498489
167	0x3d9cf3d4	0.07663694
168	0x3cb431a8	0.021996334
169	0xbdbcdbdc	-0.09221622
170	0xbc8b64d8	-0.01701586
171	0x3cad5918	0.021160647
172	0x3daa8004	0.08325198
173	0xbda8339a	-0.08212967
174	0x3da57ef2	0.080808535
175	0x3d79651c	0.06088744
176	0x3d961e02	0.07329942
177	0x3d8a8b4e	0.067648515
178	0xbc06c370	-0.008225307
179	0xbd7dd244	-0.061968103
180	0xbd88cfae	-0.06680237
181	0xbd2083d8	-0.039188236
182	0xbdda967c	-0.10673234
183	0xbdd1de7a	-0.10247512
184	0xbcf13a78	-0.029446825
185	0xbd5a8bec	-0.053356096
186	0x3d727f0c	0.059203193
187	0x3dc338fc	0.09532353
188	0xbd82af7e	-0.06381129
189	0x3dba12b4	0.090855986
190	0x3d3a2388	0.04544404
191	0x3d536174	0.05160661
192	0x3d73bc94	0.059506014
193	0x3dc80dc6	0.09768252
194	0x3dcf7f50	0.10131705
195	0xbd154d4c	-0.03645067
196	0xbc735d30	-0.014853761
197	0x3dd97c72	0.10619439
198	0xbd8b777c	-0.06809899
199	0x3de865a6	0.11347513
200	0x3c5ab660	0.013349146
201	0x3d7805e8	0.060552508
202	0xbdfe4f04	-0.12417415
203	0xbd9aa9f2	-0.07551946
204	0xbda9c058	-0.0828864
205	0xbc701700	-0.014653921
206	0x3d3a3804	0.045463577
207	0xbceec500	-0.029146671
208	0xbdd2ebb4	-0.10298863
209	0xbdee086a	-0.116226986
210	0x3de71378	0.1128301
211	0x3dd74ec2	0.10513069
212	0xbd2a2e0c	-0.04154782
213	0xbd2d1144	-0.042252794
214	0x3dd25a46	0.102711245
215	0x3dd3f2d8	0.10349053
216	0x3d65a2d0	0.056063473
217	0x3d1bad10	0.038006842
218	0x3dc6d868	0.09709245
219	0x3c2d4960	0.010576576
220	0x3d92b280	0.071629524
221	0xbd24c1b8	-0.040223807
222	0xbce78be0	-0.02826494
223	0xbd41f8ac	-0.047356293
224	0x3c043870	0.008070096
225	0x3c508ef0	0.012729391
226	0xbddf5782	-0.10905363
227	0xbb88db60	-0.004176542
228	0x3d0d917c	0.034562573
229	0xbd563dcc	-0.052305028
230	0x3dfe750e	0.1242467
231	0x3de1273a	0.1099381
232	0x3de6c41e	0.11267875
233	0xbdf64ba4	-0.12026146
234	0x3d826dfc	0.06368634
235	0x3d81b2a0	0.06332898
236	0xb78f6000	-1.7091632e-05
237	0xbcba7910	-0.022762805
238	0x3c04b800	0.00810051
239	0x3d63cbc4	0.055614248
240	0x3c1d2d30	0.009593293
241	0x3db90198	0.09033507
242	0xbdbc09cc	-0.09181556
243	0x3d6b5738	0.057456225
244	0x3de9aade	0.114095435
245	0x3d87f0d2	0.0663773
246	0x3ce699d0	0.028149515
247	0xbd016528	-0.03159061
248	0x3dca0782	0.09864713
249	0x3cdeb928	0.027187899
250	0xbdf64d60	-0.12026477
251	0x3d8a9466	0.06766586
252	0x3d13e704	0.036108986
253	0xbd542d94	-0.05180128
254	0xbb79fa00	-0.0038143396
255	0xbd98f6da	-0.07468958
